app/src/main/assets/model.tflite (tflite, 775508 bytes, 5 tensors)

sequential/embedding/embedding_lookup/87214 f4 [10003, 16]
00000000: ef71 db3c 2e30 8d3c 3252 a7bb 9abf 093d
00000010: 300a 12bb 97c3 c1bc 8073 30bd 8f29 10bc
00000020: 92fc 5dbc 91e0 15bd 7a5e af3b b1e8 0b3c
00000030: 3230 433d 7abb 2cbb 313a 393c 2514 5fbc
00000040: f7f1 fe3c bfc5 90bd e110 2abd 054d 4ebd
00000050: 0b6c bebd f04c 8abb 3df3 4e3d 17c5 aabd
00000060: 243f 583d eec5 cd3d 3db5 e03d 6e91 8fbd
00000070: 05cc 8ebd 04da 8f3d c1f0 42bd b3e2 bebc
00000080: fcb6 413b 292b 14be 2108 95bb 431e 02bf
00000090: 3471 5abc 8328 fc3d 2705 a13e d6a7 b73d
000000a0: e457 c23d 0dba a03e 4b93 1dbe ea6a 193e
000000b0: e60c edbe b6f5 c23c 87b7 7cbe 0720 9abd
000000c0: 7dba babb bcbc 0dbe 514f 3c3d a201 a0be
000000d0: 607f a03d 30a1 cebb a8c7 503e f841 cf3d
000000e0: 9bd8 9c3d 21ca 3a3e 85ee 38be f2a6 8f3d
000000f0: aec2 84be 6a3c a63c 09f9 36be 29bd a5bd
00000100: adf5 6dbb 4f49 38bd 1a9d 9f3c 72cc 04be
00000110: 0a8d efba 438c ac3c de69 a53d 326f 92bc
00000120: 034b 113c c6f1 9a3d fca1 9cbc ffd1 e8bb
00000130: 0a88 00be 5c3c 863d eee0 d8bd 56cf 1dbd
00000140: dc06 adbd 638c 8a3d 4ef1 adbc 6157 0c3e
00000150: 2521 b1bd a4a6 9e3c cf4f e9bd bf7a c6bc
00000160: 4921 90bb 1a03 26be 9bef 0e3d c4d6 64bd
00000170: 2584 153e 257c b13c bcf2 df3d ac0d 3e3d
00000180: 0c7e 213e 5e2e 49be c448 42be aed3 eebd
00000190: 1978 0cbe 8c5d 89be ea9e 0a3e 417a 0bbe
000001a0: 7041 503e c85f 303e 451c 953d 120f 46be
000001b0: 5c7c 59be c325 303e f73e 5abe ba2c 5abe
000001c0: 5e04 073e 5ddd 8ebe 3f7a a43c ff30 c2be
000001d0: a9a7 273d c4df 24bd 1f8f 953e 6cc7 d73d
000001e0: 9b71 143e 587c 9f3e b85f 42be b1c0 57bc
000001f0: 4b89 fabe d707 3a3d a7d2 8bbe a679 2fbe
00000200: 254d 723d 0690 47be a591 9fbd c2a8 8dbe
00000210: 13f7 d1bc 4aef b63c 7592 833e f308 a03d
00000220: d494 453e cd4d 6f3e 7c92 7fbd 8715 a7bb
00000230: ae9e a6be 2507 d63d 0ad2 33be 16bc a0bd
00000240: 254d 763e 2842 59be 93c1 7dbd b8b1 95bd
00000250: 0dd8 c6bd c64b 1fbe 6946 033e f418 d5bd
00000260: 2802 da3d f218 003e 7bd1 b13b 242b 06be
00000270: 7920 0cbe 20b1 c83d 85c0 55be 586c 27be
00000280: 0fe3 583c 3cb8 23bd 35c7 913d bd3f b2bd
00000290: 16fa d03d 0685 3f3d 237e f63d 2e78 233d
000002a0: 5513 11bd bf8c 953b f3b4 6ebd 8df7 493c
000002b0: dfa6 bebd bb52 cebc 8210 b5bd df97 263d
000002c0: cda7 133e 31b6 3abe 8031 15be 4863 e7bd
000002d0: 01ad b7bd 7a3f 94bd 6573 a83d 0587 0abd
000002e0: 1366 ab3d e91e 1e3e dc9b bd3d e901 d9bd
000002f0: 924a cdbd 1650 503d 5119 45be 4e87 c9bd
00000300: 967e 17ba 03f5 243b 9aa4 393e e16a a8be
00000310: f102 883e 8b95 473e 099b 243e 2bde 813e
00000320: 522e b1bc dc53 313e f4e1 6abe 3585 183e
00000330: e6fb 82be d8a9 07be dd43 22be eb98 ce3d
00000340: d0e2 863e ec92 a2be 57e6 18be 8d2e 18be
00000350: 7402 40be 3586 8ebe fbe3 2e3e a044 fcbd
00000360: c690 8e3e 40ed 5c3e 640f 703d 6883 66be
00000370: 5e07 71be 9a3a 743e 64ff 7fbe 830e 80be
00000380: 3682 2bbe df1c 4b3e 553c cb3c 53da 7b3e
00000390: a233 923c e936 da3d e610 7cbe 5961 423d
000003a0: e90e 7cbd 3fc3 6fbe 34b3 19bc f6cc c73d
000003b0: 7787 303e 61fa 09bd 5b7c 663e 75a1 0c3e
000003c0: 846c 39bc b70b c63d 874d 1bbd 270d 963e
000003d0: eee7 9ebd a253 c4bd 8a61 43be 6072 32bd
000003e0: a254 46bb 20bf 76be 3390 853d a9dd e0bd
000003f0: 0495 9e3e 04ee 4e3d b841 f53d 0d67 113a
0.026787726 0.017234888 -0.005106234 0.03362999 -0.0022283904 -0.023652835 -0.0430789 -0.008798971
-0.013548987 -0.036591116 0.0053518387 0.008539365 0.047653385 -0.0026356862 0.011305378 -0.013615643
0.031121237 -0.07068967 -0.041520003 -0.05036642 -0.09297951 -0.0042205974 0.05052494 -0.08338373
0.05279459 0.10047518 0.109720685 -0.070101604 -0.069725074 0.07024005 -0.047592882 -0.023301458
0.002955853 -0.1446959 -0.004548088 -0.50827426 -0.013332654 0.123124145 0.31449243 0.08967559
0.0948942 0.31391945 -0.15388219 0.1498219 -0.46298903 0.023798805 -0.24679385 -0.0752564
-0.0056985007 -0.13841528 0.04597408 -0.31251246 0.07836795 -0.006305836 0.20388663 0.101200044
0.07658502 0.18241169 -0.18059738 0.07014264 -0.2592978 0.02029248 -0.17868437 -0.0809272
-0.0036309764 -0.044991788 0.019484092 -0.12968615 -0.0018276286 0.021062976 0.08076833 -0.017875288
0.008867982 0.07565646 -0.019120209 -0.0071051116 -0.12551895 0.065544814 -0.10589777 -0.03852781
-0.08448574 0.06765058 -0.021233227 0.13705207 -0.086489 0.01936657 -0.113921754 -0.024228452
-0.004398499 -0.1621212 0.034896474 -0.05586888 0.1460119 0.021665642 0.1093497 0.046399757
0.1577074 -0.19646594 -0.1897307 -0.116614684 -0.13717689 -0.26829183 0.13537183 -0.13620855
0.20337462 0.17224038 0.072807826 -0.19341686 -0.21238846 0.17201905 -0.21313082 -0.21306124
0.1318526 -0.27903262 0.020077823 -0.37928006 0.040931378 -0.040252462 0.29210755 0.105360836
0.14496462 0.31149554 -0.18981826 -0.0131685 -0.4893287 0.045417633 -0.27309152 -0.17136249
0.059155602 -0.19488534 -0.07791451 -0.27667814 -0.02563051 0.022330899 0.25697675 0.07814207
0.19295055 0.23369522 -0.062395558 -0.005099002 -0.32542938 0.104505815 -0.17560592 -0.078483745
0.24052866 -0.21216643 -0.061952185 -0.07309288 -0.09709177 -0.15556249 0.12819828 -0.1040515
0.106449425 0.12509516 0.0054265833 -0.13102394 -0.13684262 0.09799409 -0.20874222 -0.16349924
0.013237729 -0.03997062 0.07118074 -0.08703563 0.1020395 0.04675772 0.120357774 0.039909534
-0.035418827 0.0045638974 -0.058278035 0.012327087 -0.09309172 -0.025185933 -0.08841039 0.04067218
0.1441948 -0.18233563 -0.14569664 -0.11298233 -0.08968545 -0.0723867 0.08225135 -0.03382017
0.083690785 0.15441479 0.092582434 -0.105960675 -0.10023989 0.050857626 -0.19247939 -0.098402604
-0.00057790556 0.0025170452 0.18129197 -0.32894042 0.26564744 0.1949064 0.16074766 0.25364813
-0.021628533 0.17317146 -0.22937757 0.14894564 -0.25582808 -0.13248384 -0.158462 0.100877605
0.2634492 -0.31752717 -0.14931618 -0.14861508 -0.18750936 -0.27836767 0.17079155 -0.12317777
0.27844828 0.21574879 0.058608428 -0.22511065 -0.23537967 0.2385048 -0.24999768 -0.25011072
-0.1674889 0.19835232 0.024809042 0.24595003 0.017846886 0.106550045 -0.24615821 0.04745612
-0.061537657 -0.23414324 -0.009381104 0.0975589 0.17239176 -0.033686046 0.22508375 0.13733466
-0.011317376 0.09670203 -0.037915733 0.2930691 -0.07759081 -0.09586264 -0.19080177 -0.043566108
-0.0030262847 -0.24096346 0.065216444 -0.10979778 0.30973065 0.05051996 0.119754255 0.0005546667

sequential/dense_1/BiasAdd/ReadVariableOp/resource f4 [2]
00000000: e78a c33e f08a c3be
0.38191912 -0.38191938

sequential/dense/BiasAdd/ReadVariableOp/resource f4 [16]
00000000: f507 08bd 631a eab8 8681 de3c 4d89 1d3c
00000010: 803c 55bd a239 1bbd 66c1 80bd ffdc 09bd
00000020: 4e4d bebd b471 6abd 3edd 5b3d 183e 8dbd
00000030: 3896 a0bd fb4f d2bd 02bf e8bc ce58 fdbc
-0.033210713 -0.000111629044 0.027161371 0.009615255 -0.05205965 -0.03789676 -0.06286888 -0.033658024
-0.092920884 -0.057237342 0.05367779 -0.06896609 -0.07841152 -0.10269161 -0.028411392 -0.030926134

sequential/dense/MatMul f4 [16, 16]
00000000: 5d7f 0abf bd06 b43e 6036 713f cc95 403e
00000010: 2917 1740 f8f7 c43d 96f4 b5be 3e0a 483f
00000020: 0009 1cbf e34d 00bf 9082 3cbf c115 5d3e
00000030: fa0a 093f bb1a 33c0 fd5e 2a40 2868 933e
00000040: 6c92 363d 7fa0 d8be 20a2 2a3e 1876 0bbe
00000050: 078a 813e 851d 4e3e 0572 bbbe 509f 65bd
00000060: 709f 3f3e 9f86 b63e 05ab d6be 35ea bd3e
00000070: e066 c4be 15f9 253e cba0 a23e 26fb a83e
00000080: 4722 573f 2def d8be eda3 83bf a7c7 2bbd
00000090: 536c 5bc0 888f 22bf 4009 9b3e cf88 93bf
000000a0: 39f4 243f 4077 0b3f 7ba8 bd3f 5ed0 49bf
000000b0: 322e 0fbc 2326 8740 a1f0 39c0 f16a ddbe
000000c0: 3ab9 433f 8492 0cbf b3fc cbbf 85f5 15be
000000d0: 5543 5ac0 2dc8 ffbe 3009 3c3e 0e42 81bf
000000e0: fe49 453f dc89 3d3e 6c95 b43f c481 c4be
000000f0: 0e82 0abf 8922 8940 b814 2fc0 39a3 54bf
00000100: 03a1 46bf 75de 3f3f c258 3e3f f122 673e
00000110: 8ffb f53f 76ae d63e c39d 19bf ea85 d53e
00000120: 543f 51bf cee4 adbe c6b3 35bf c27a 513f
00000130: a647 943e d5ec 49c0 1a06 5240 9f75 133f
00000140: 77fa debe 599a b43e d14a b5bd 4ba9 2f3e
00000150: b456 a13e 2ca1 373d 8e9a 7f3e fa9c b03d
00000160: 7137 97be 37e0 2cbe 8653 b73e f758 c33e
00000170: dcfb 39be 7f1f a8be b810 34be 7b37 7dbe
00000180: 8338 98be bf80 163f 4960 673f 8ded 473f
00000190: b77f fd3f 5ac5 493f 4bec acbe e6b4 753f
000001a0: 9e2a 5ebf a9a1 d1be 1c2b 33bf 8124 4e3f
000001b0: b531 183f 69ed 34c0 7a93 5c40 e250 0b3f
000001c0: 51b9 b3bd 9496 953e fedc dc3e 4439 cdbe
000001d0: f062 b83d 2e3e 7b3e d4b8 98be a912 883e
000001e0: a841 313e b8fe b6be f5be 823d aaac 623d
000001f0: 996e 04be 5d3b 383e 7452 19be def8 433e
00000200: 4a22 0bbf 8029 903f a29a d83e ef3d 293f
00000210: 7993 0c40 32d7 bf3e 83d2 e83d 5777 103e
00000220: e54c 60bf 70ad 3fbf 9d80 53be 436d a83e
00000230: e675 3d3f e9c9 51c0 a54e 8640 c0ad 133e
00000240: 74c9 0ebf 187d 343f 54f7 5c3f d25a 003f
00000250: 5a5c 1940 f3a9 a63d 266a 38bf f535 f43e
00000260: 4cad 6ebf 90ab a8be d26d 4ebf ca93 403f
00000270: bbd1 883e c519 5cc0 faae 6c40 17ff 483f
00000280: 0b4f 0a3f 639f 59bf 9743 a3bf 6d29 30bf
00000290: c2aa 6ac0 1fc2 2cbf 3829 493d 8467 83bf
000002a0: b0f0 1e3f 705e b53e affb f53f e1b3 63bf
000002b0: 0a3c f4bc 02ff 8740 431d 52c0 80cf cdbe
000002c0: 0b84 f1be ede6 193f bb7d 133f e28a 3b3f
000002d0: 9477 1440 b636 0b3d 106b d3be 784f e03d
000002e0: 1a4d 2ebf c24f 18bf 4414 49bf c23b 503f
000002f0: 551d f43e a096 63c0 1c56 8140 ce03 123f
00000300: cef7 52bf 60b0 533f 9ddd 283f f2b8 2f3f
00000310: f997 0440 3e93 293e e32a a5be f8f5 e73e
00000320: f6a6 c8be 09c7 35bf 00c5 21bf 7f17 a43e
00000330: 52f4 dc3e 5a1c 2dc0 d244 8440 6c39 9a3e
00000340: e06e dfbe b27d 603f fe31 a03e 768c 3c3f
00000350: 01e7 d43f aa63 4d3f 5af7 f4be 2f93 233f
00000360: 6535 67bf 7466 55bf d695 8ebd f227 923e
00000370: 1a03 203f bd59 40c0 4668 7240 43cd 2f3f
00000380: ba85 20be 7ea4 7d3e 2eb4 8c3c 0214 d9be
00000390: 5fb5 63be 7028 e83e 7781 04be 5534 29be
000003a0: 21a8 abbe a370 93be 8645 f13d 130d 903d
000003b0: 9c04 67bd 0c54 e13e f9b4 643e 9da9 55bb
000003c0: eee6 8d3d 40c4 1fbe 6c2a 783e 1029 d3be
000003d0: 69b5 b63d 5145 9b3e 54e2 b8be 7b5b 44bb
000003e0: cb20 c13d 4295 b0be 9470 083e d690 49be
000003f0: 8a09 c2be 0ab6 9f3e ca8d d1bd a2ad 61be
-0.5410059 0.3516139 0.94223595 0.18807143 2.3607886 0.09617609 -0.35538167 0.7814063
-0.6095123 -0.50118846 -0.7363672 0.2159033 0.53532374 -2.7985065 2.6620476 0.28790402
0.044573233 -0.4230995 0.16663408 -0.13619268 0.2530062 0.20128448 -0.36610427 -0.056060135
0.18713164 0.35649583 -0.41927353 0.37092748 -0.38359737 0.16208299 0.317633 0.3300411
0.8403668 -0.42369977 -1.0284401 -0.04193845 -3.4284866 -0.6350026 0.30280495 -1.1526126
0.64435154 0.54478836 1.4817041 -0.7883357 -0.008739041 4.2234054 -2.9053118 -0.43245652
0.7645451 -0.54911065 -1.5936493 -0.1464444 -3.4103596 -0.4995741 0.1836288 -1.0098283
0.7706603 0.1850962 1.41081 -0.38380253 -0.541047 4.2854657 -2.7356396 -0.8306156
-0.77589434 0.7494882 0.74354184 0.22571923 1.9217395 0.41929978 -0.6000635 0.4170373
-0.81737256 -0.33963627 -0.7097744 0.8182794 0.28960913 -3.15508 3.2816224 0.5760135
-0.43550465 0.35274008 -0.08852161 0.17154424 0.31511462 0.04483144 0.24961302 0.08623691
-0.29534486 -0.16882406 0.3580591 0.38153812 -0.18162483 -0.3283653 -0.17584503 -0.24728195
-0.29730615 0.587902 0.90381294 0.7809685 1.98046 0.7881676 -0.33774027 0.95979154
-0.8678378 -0.4094365 -0.69987655 0.8052445 0.59450847 -2.8269904 3.4465013 0.5442029
-0.08775581 0.29216444 0.43137354 -0.40082753 0.09003246 0.24535438 -0.29828513 0.26576737
0.17310202 -0.3574121 0.063840784 0.055340447 -0.12932815 0.17991395 -0.1497286 0.19137904
-0.54349196 1.1262665 0.42305475 0.6611013 2.196501 0.37468868 0.11368277 0.14108025
-0.8761733 -0.7487402 -0.20654531 0.3289586 0.74008024 -3.2779486 4.1971 0.14421749
-0.55776143 0.7050338 0.8631489 0.5013858 2.3962617 0.08137884 -0.7203697 0.47697416
-0.9323318 -0.32943392 -0.8063632 0.7522551 0.26722512 -3.4390728 3.6981797 0.78514236
0.5402686 -0.8500883 -1.2755002 -0.6881321 -3.6666722 -0.67483705 0.049111575 -1.0265965
0.6208601 0.35423613 1.9217433 -0.8894635 -0.029813785 4.249879 -3.283036 -0.40197372
-0.47171053 0.6011799 0.57613724 0.73258793 2.3197985 0.033987723 -0.4129262 0.109526575
-0.680864 -0.594967 -0.7854655 0.81341183 0.4767863 -3.5560684 4.0417614 0.57037055
-0.8240937 0.82691 0.65963155 0.6864158 2.0717757 0.16560075 -0.32259282 0.45304847
-0.3918988 -0.7100683 -0.63191223 0.32049176 0.43155152 -2.7048554 4.133401 0.30121934
-0.43639278 0.87691796 0.3128814 0.73651826 1.6632997 0.802302 -0.47844964 0.6389646
-0.9031585 -0.83359456 -0.06962173 0.285461 0.6250473 -3.0054772 3.7876143 0.6867258
-0.15676013 0.2476978 0.01717576 -0.42398077 -0.22237156 0.4534335 -0.12940012 -0.1652387
-0.3352671 -0.28796872 0.11780839 0.07033744 -0.05640088 0.44009435 0.2233466 -0.0032602318
0.06928812 -0.15602207 0.24234933 -0.41242266 0.0892132 0.30326322 -0.36110175 -0.0029961753
0.09430083 -0.34488875 0.13324195 -0.19684157 -0.37897903 0.31193572 -0.10232122 -0.22038892

sequential/dense_1/MatMul f4 [2, 16]
00000000: 178b c8bf 0414 943e 7e37 3340 ba58 3440
00000010: 4878 00c0 78bb 363e 2eab 0cc0 d07d 073f
00000020: 1668 24c0 1a86 0ec0 b78d 0540 2b7b e6bf
00000030: fb98 16c0 9c11 26c0 604c 17bd 2c50 7abe
00000040: e392 0140 5b65 cabc 8897 32c0 d725 31c0
00000050: f552 1940 7556 7dbc 6221 1240 e34f d03e
00000060: 6497 1340 2b04 dd3f 5beb 08c0 3439 0540
00000070: 14a2 1340 38d3 1140 0e76 19be 239f 0b3f
-1.5667447 0.2892152 2.800262 2.8179154 -2.0073414 0.17844951 -2.197948 0.5292635
-2.568853 -2.226935 2.0867746 -1.8006338 -2.3530872 -2.5948248 -0.03693807 -0.24444646
2.0245903 -0.024706533 -2.7904987 -2.7679346 2.3956883 -0.0154625075 2.2832875 0.4068595
2.3061152 1.7266897 -2.139365 2.0816164 2.3067675 2.2785168 -0.1498644 0.545397
